model/model.pth (torch, 16799 bytes, 4 tensors)

linear1.weight f4 [256, 11]
0	0x3b693178	0.0035582464
1	0x3e96ecca	0.2947753
2	0xbda6d947	-0.08146911
3	0x3e772132	0.24133757
4	0x3e923736	0.28557748
5	0xbcc3fb24	-0.023923464
6	0xbd4c7d45	-0.049924154
7	0xbebc6f74	-0.36803782
8	0x3d82f88c	0.06395063
9	0xbe84515f	-0.2584333
10	0xbe88e3d1	-0.2673631
11	0x3c951af5	0.01820133
12	0x3ed4b3ad	0.41543332
13	0x3ee4e320	0.44704533
14	0x3e12b28e	0.14325926
15	0x3e8c2417	0.27371284
16	0x3e28935c	0.16462463
17	0xbe1503b6	-0.14552197
18	0xbdf91f90	-0.12164223
19	0x3b683695	0.0035432924
20	0x3e5a0653	0.21291475
21	0x3e8051be	0.25062364
22	0xbb96da7a	-0.004603681
23	0x3de75a23	0.11296489
24	0x3d96135a	0.0732791
25	0xbe887d63	-0.26658162
26	0xbd80161c	-0.06254217
27	0xbe4da4aa	-0.20082346
28	0xbe4e4e0a	-0.20146957
29	0xbd0cffa6	-0.034423493
30	0xbd97b0a9	-0.07406742
31	0xbe8afe34	-0.27147067
32	0x3de9a35a	0.1140811
33	0x3e251ac5	0.16123493
34	0xbe57ee5e	-0.21087024
35	0x3ed1ebc8	0.410002
36	0xbd915900	-0.070970535
37	0xbb66a8b8	-0.003519578
38	0xbe20dbd4	-0.15708858
39	0xba8ea236	-0.0010882083
40	0xbdd1e474	-0.10248652
41	0x3c118ed2	0.008884149
42	0xbe4d34cb	-0.2003967
43	0xbce9f002	-0.028556827
44	0x3cf12327	0.029435707
45	0x3e3b3ae0	0.18284178
46	0xbe0d143a	-0.13777247
47	0x3e1fee67	0.15618287
48	0xbe5dced9	-0.21660937
49	0xbcce10ff	-0.025154589
50	0xbeb52822	-0.3538218
51	0xbe92ad76	-0.28647965
52	0x3e242c1b	0.1603245
53	0xbc4d321c	-0.012524154
54	0x3e962f19	0.29332808
55	0x3d0b752f	0.0340473
56	0x3ed1abf1	0.40951493
57	0xbee974a4	-0.45596802
58	0x3d19938d	0.03749423
59	0xbda25415	-0.079261936
60	0xbdb7ece5	-0.08980731
61	0xbd4e3cd3	-0.050350975
62	0x3dc0ab85	0.09407715
63	0x3d01dfb2	0.031707473
64	0xbcd493c7	-0.025949372
65	0xbd28daae	-0.041224174
66	0x3ed37827	0.41302606
67	0x3ecc20e7	0.39868852
68	0x3f0af6dc	0.5428293
69	0xbdfa882c	-0.12233004
70	0xbca23bb6	-0.019803863
71	0x3e0ef4ec	0.13960618
72	0x3e5341c7	0.20630561
73	0x3ca2ee06	0.019888889
74	0xbcb55354	-0.02213446
75	0xbc82c7a8	-0.015964344
76	0x3e84c100	0.25928497
77	0x3f048df6	0.51779115
78	0x3e227b87	0.15867434
79	0x3eb1ea5c	0.34749115
80	0x3c85116e	0.016243663
81	0xbd2b966d	-0.041891504
82	0x3d7aa945	0.061196584
83	0x3e403436	0.18769917
84	0x3e3627b1	0.17788579
85	0x3e773746	0.24142179
86	0x3e92569c	0.28581703
87	0x3c391b0c	0.011297952
88	0x3e40ab7f	0.1881542
89	0xbe707f42	-0.23486045
90	0x3e3f3f7c	0.18676561
91	0xbe4d5872	-0.2005327
92	0xbe415f8b	-0.18884103
93	0x3e350f10	0.17681527
94	0xbe4908e6	-0.196323
95	0x3d18a3f7	0.037265744
96	0xbcec101c	-0.028816275
97	0xbe101344	-0.14069849
98	0x3ddc6703	0.107618354
99	0x3ee7182b	0.45135626
100	0x3ea1ab6c	0.31576097
101	0x3db42d25	0.08797673
102	0x3e07e8c6	0.1327239
103	0x3d88aa55	0.06673113
104	0xbd14752c	-0.036244556
105	0xbdb9f264	-0.090794355
106	0x3e096a68	0.13419497
107	0x3d9405ba	0.07227655
108	0x3d501969	0.050805483
109	0x3db67496	0.08908956
110	0x3ed44123	0.41455945
111	0xbe9654a2	-0.29361445
112	0xbe150a49	-0.14554705
113	0xbe258b27	-0.16166364
114	0x3db1e9b8	0.086871564
115	0x3d7b7e88	0.061399966
116	0xbd8a802a	-0.067627266
117	0x3e928eea	0.2862466
118	0xbe175166	-0.14777145
119	0xbda385d7	-0.07984512
120	0x3e083407	0.13301097
121	0xbdc99b3b	-0.09844061
122	0xbdbe6749	-0.09297044
123	0xbe978bac	-0.2959875
124	0xbea2756f	-0.3173022
125	0xbbfa2dc0	-0.0076348484
126	0xbe6d7cf5	-0.23192199
127	0xbe4fbac4	-0.20286089
128	0xbe62c84d	-0.22146721
129	0x3e743871	0.23849656
130	0xbd1a8a34	-0.037729457
131	0xbdc706de	-0.09718107
132	0x3d302a87	0.043009307
133	0x3caa9bdc	0.020826273
134	0xbdec37ce	-0.115340814
135	0x3e430978	0.19046581
136	0xbe89c711	-0.26909688
137	0xbd7d239f	-0.06180155
138	0x3c1eb75e	0.009687273
139	0xbdeaf6df	-0.11472868
140	0xbdfd932a	-0.12381585
141	0xbe8c24e8	-0.27371907
142	0xbd631a2f	-0.055444892
143	0xbe6802e8	-0.22657359
144	0xbeadc4bf	-0.33939168
145	0x3f26e831	0.65198046
146	0x3d1c6bd5	0.038188774
147	0x3e5b4358	0.21412408
148	0x3e49ae42	0.1969538
149	0xbdb92025	-0.09039334
150	0x3b31de2f	0.0027140488
151	0xbd86280e	-0.065506086
152	0xbdc0188c	-0.09379682
153	0xbd91ab1f	-0.07112717
154	0x3ec400d2	0.38281876
155	0xbe9bca64	-0.3042785
156	0xbeaaff12	-0.33397728
157	0xba40799f	-0.00073423417
158	0x3da7c738	0.08192295
159	0xbd866056	-0.06561343
160	0xbdb6a4b3	-0.08918133
161	0xbc85072a	-0.016238768
162	0xbcf31e51	-0.029677542
163	0x3eb05f6a	0.34447795
164	0x3e08ed5b	0.13371794
165	0x3dfe2186	0.12408738
166	0x3f0f1648	0.55893373
167	0x3d9fbd94	0.07799831
168	0xbe7ca734	-0.24673158
169	0x3e14f7e4	0.14547688
170	0xbcb3efcc	-0.02196493
171	0xbd530c0a	-0.051525153
172	0x3e15bcb3	0.14622764
173	0x3ea28f74	0.3175007
174	0x3ead6a1b	0.33870015
175	0xbdf09191	-0.117465146
176	0xbd7998cc	-0.060936734
177	0x3e98d1a3	0.2984744
178	0xbe50529b	-0.20344011
179	0x3db4a7bc	0.08821055
180	0xbd46ded8	-0.048552364
181	0x3e2b8d95	0.16753228
182	0x3c84f138	0.016228303
183	0xbe1c768e	-0.152796
184	0xbc323269	-0.0108762765
185	0xbe9e53e7	-0.30923387
186	0xbc40728a	-0.011746058
187	0x3e9ef19c	0.31043708
188	0xbdc36e90	-0.095425725
189	0x3e914a11	0.2837682
190	0xbc9f7841	-0.019466521
191	0xbe21c6d2	-0.157985
192	0x3bd4bce7	0.0064922455
193	0x3d889297	0.06668585
194	0x3cfc0ec4	0.03076876
195	0xbd89a8bb	-0.06721636
196	0x3e48a61f	0.1959462
197	0x3e841089	0.25793865
198	0xbd9c5681	-0.07633687
199	0xbe5adce2	-0.21373323
200	0xbe92bc29	-0.2865918
201	0xbe335772	-0.17513826
202	0x3e2b7373	0.16743259
203	0x3da2ad03	0.079431556
204	0x3be96aba	0.0071233185
205	0xbe5266df	-0.20547055
206	0xbe55f499	-0.20894088
207	0xbe5285cc	-0.20558852
208	0xbe99b54e	-0.30021137
209	0x3e8b2ddf	0.27183434
210	0xbe8675d1	-0.26261762
211	0x3e342c88	0.17595112
212	0x3e759a9d	0.23984762
213	0xbe827cf3	-0.25485954
214	0x3e78261b	0.24233286
215	0x3de3546a	0.11100085
216	0xbe30503a	-0.17218104
217	0x3dbbf849	0.09178216
218	0xbb9d9526	-0.0048090396
219	0xbccad99f	-0.024761973
220	0x3e38d32f	0.1804931
221	0x3db498f4	0.08818236
222	0xbe156414	-0.14588958
223	0xbe443ea1	-0.19164516
224	0x3ea84efe	0.32872766
225	0x3e40c2b8	0.1882428
226	0xbe76bf47	-0.24096404
227	0xbeaa942b	-0.33316168
228	0xbda0fe16	-0.07860963
229	0xbd517b5d	-0.05114304
230	0xbeacc733	-0.33745727
231	0x3e2d0944	0.16898066
232	0x3ee31263	0.44349965
233	0x3e5773e7	0.21040307
234	0x3e9f494f	0.31110618
235	0x3cd09b95	0.025464812
236	0x3e82f743	0.2557927
237	0x3b9c6996	0.004773329
238	0x3e7f6af8	0.24943149
239	0x3ec69829	0.38787964
240	0x3e6f8d5c	0.23393768
241	0xbe1411ed	-0.14459963
242	0x3ecca0f0	0.39966536
243	0xbd5fc309	-0.05462936
244	0x3f10c0f8	0.56544447
245	0x3cdc2199	0.02687149
246	0xbdf4af55	-0.119475044
247	0x3ea22a46	0.31672877
248	0xbe89d5b5	-0.26920858
249	0x3eb0429c	0.3442582
250	0x3de6955d	0.112589575
251	0xbe8c62ab	-0.27419028
252	0x3e8a2d15	0.2698752
253	0xbe405684	-0.18783003
254	0x3f0651c7	0.5246853
255	0x3e96cf1f	0.29454896

linear1.bias f4 [256]
0	0xbd9f9c9d	-0.077935435
1	0x3e4df1c3	0.20111756
2	0xbeb6cf01	-0.35704806
3	0x3c96b5ef	0.0183973
4	0x3d3f5d9d	0.046720136
5	0x3e9e0c00	0.3086853
6	0x3e0d5bae	0.13804504
7	0xbe29eadf	-0.16593502
8	0xbe8a2ced	-0.269874
9	0x3e491e16	0.19640383
10	0xbd7d7765	-0.06188144
11	0xbc964d5f	-0.01834744
12	0x3ca4bf5e	0.020110782
13	0x3e71c7ee	0.23611423
14	0x3cb5e589	0.022204177
15	0x3e3f14cb	0.18660276
16	0xbc4cd01f	-0.012500792
17	0x3e652e4c	0.22380942
18	0xbe0d49ea	-0.13797727
19	0xbddb5af1	-0.10710705
20	0x3deeef58	0.11666745
21	0x3e10fd63	0.1415916
22	0x3ae39d4c	0.0017365604
23	0x3d99e266	0.07513885
24	0xbd7826ab	-0.06058375
25	0x3e96c4fa	0.29447156
26	0xbdb5c42e	-0.08875309
27	0xbe73b1f8	-0.23798358
28	0xbcf62fae	-0.030052032
29	0xbd8a8fa4	-0.067656785
30	0xbe90ae57	-0.2825801
31	0x3e217ae4	0.15769535
32	0xbd429dea	-0.04751388
33	0xbbc79c06	-0.0060915975
34	0xbe1de7cb	-0.15420453
35	0xbdf2b715	-0.118513264
36	0x3d65a463	0.056064975
37	0xbe217d92	-0.15770558
38	0x3d501c98	0.05080852
39	0x3ceff672	0.029292319
40	0x3e4d6f26	0.20061931
41	0xbe594c0a	-0.21220413
42	0x3db05a1e	0.086109385
43	0x3e09e249	0.13465227
44	0x3e909385	0.28237548
45	0xbe377d30	-0.17918849
46	0x3e0409a3	0.12894301
47	0xbe6574cc	-0.22407836
48	0x3d4b711e	0.049668424
49	0x3d3865aa	0.04501883
50	0xbc81cfe8	-0.015846208
51	0x3e1125dd	0.141746
52	0xbc889712	-0.016673598
53	0xbe92dffd	-0.28686514
54	0xbdaa6bc3	-0.08321335
55	0xbebf5936	-0.3737275
56	0x3d95e145	0.073183574
57	0x3e492968	0.19644701
58	0x3e894833	0.26812896
59	0x3c98dc48	0.018659726
60	0xbd6f88c9	-0.058480058
61	0x3e300f85	0.1719342
62	0xbe02ec8e	-0.12785551
63	0x3d530d47	0.051526334
64	0xbe296fcd	-0.16546555
65	0x3e861578	0.26188254
66	0x3df34ba4	0.11879662
67	0x3e1bed8f	0.1522734
68	0xbe2a1eb5	-0.16613276
69	0x3db5f9d6	0.08885543
70	0xbdd541f1	-0.10412968
71	0xbe9851c9	-0.29749897
72	0xbe5c8e7c	-0.21538728
73	0xbe80d573	-0.2516285
74	0x3de24395	0.110480465
75	0x3e432273	0.1905611
76	0x3d8f9ae2	0.070119634
77	0x3cbea3bb	0.023271432
78	0xbe415457	-0.1887983
79	0xbde09e51	-0.109676965
80	0x3dc77f92	0.09741129
81	0xbe9c4a1f	-0.305253
82	0x3d1ab0e8	0.037766367
83	0xbd8ffaa8	-0.07030231
84	0x3d2fc252	0.042909928
85	0x3e4702a0	0.19434595
86	0xbe373a24	-0.17893273
87	0xbddd72d4	-0.10812917
88	0x3e563640	0.20919132
89	0xbe8eb067	-0.2786896
90	0xbe93b670	-0.28850126
91	0xbe34272b	-0.17593066
92	0x3d81d3fe	0.063392624
93	0xbd7f96a9	-0.06239954
94	0x3d0aecd2	0.033917256
95	0x3eb65ac2	0.35616118
96	0x3d98b00e	0.07455455
97	0x3e87ff7d	0.2656211
98	0x3e383d5a	0.17992154
99	0x3df42b0c	0.11922273
100	0xbe06e45e	-0.13173053
101	0x3e19c1f7	0.15015398
102	0x3e67c605	0.22634132
103	0xbe70d421	-0.23518421
104	0xbda1a6b8	-0.07893127
105	0xbe23bd9f	-0.15990303
106	0xbe767474	-0.24067861
107	0xbe2b53f9	-0.16731252
108	0x3eaf2606	0.34208697
109	0xbd8d424b	-0.0689741
110	0xbe6d22c1	-0.23157789
111	0x3bb09185	0.005388441
112	0x3d7ed2f3	0.062212896
113	0xbe774ef2	-0.24151209
114	0xbdca6fb6	-0.098845884
115	0x3e45ae44	0.19304758
116	0x3db14b02	0.08656885
117	0x3dee074c	0.116224855
118	0xbe16b233	-0.14716415
119	0xbdcbbb5d	-0.09947846
120	0x3e4e63ea	0.20155302
121	0x3e450200	0.19239044
122	0x3c1b279c	0.009469893
123	0x3d145b66	0.036219977
124	0x3e8d1949	0.27558354
125	0x3be17c30	0.0068812594
126	0xbd24457c	-0.040105328
127	0x3d9d2fd9	0.07675142
128	0x3db6ce36	0.0892605
129	0x3ddef95e	0.10887407
130	0x3e6e2e1b	0.23259775
131	0x3df6ff6b	0.12060436
132	0x3c505b0e	0.012717022
133	0x3da5392d	0.08067546
134	0xbe64eb5e	-0.2235541
135	0x3dba005b	0.09082099
136	0xbe1b3c5f	-0.15159748
137	0x3e56625a	0.20935956
138	0xbce9fafa	-0.028562058
139	0xbe806e33	-0.25084075
140	0xbe1b4c08	-0.15165722
141	0xbe579468	-0.21052706
142	0x3e57f9bd	0.21091361
143	0xbe85f15b	-0.26160702
144	0x3e01526f	0.12629102
145	0xbdbc0727	-0.09181052
146	0xbbfa5afe	-0.0076402416
147	0x3e15d5c3	0.14632325
148	0xbe22f559	-0.15913905
149	0x3eba36b2	0.36369854
150	0xbc81ecaf	-0.01585993
151	0xbe33acde	-0.17546412
152	0x3e54bff8	0.20776355
153	0x3e4eec5e	0.20207354
154	0xbbe2b0ea	-0.0069180625
155	0x3e6b5c58	0.22984445
156	0xbde96367	-0.113959126
157	0x3e5044ad	0.20338698
158	0x3e79cc83	0.24394421
159	0x3e324459	0.17408885
160	0x3dfaa23f	0.12237977
161	0x3e77ce85	0.24199875
162	0x3c85e585	0.016344795
163	0x3e8a24dc	0.26981246
164	0xbde532bf	-0.1119132
165	0x3e8ed20a	0.27894622
166	0xbe046dcc	-0.12932509
167	0xbd8992b1	-0.06717432
168	0xbd8b3bf3	-0.06798544
169	0xbea0c877	-0.31402943
170	0xbecfe215	-0.40602174
171	0xbd99b085	-0.075043716
172	0x3e30fcbc	0.1728391
173	0x3dccd2f1	0.100011714
174	0xbd2659a6	-0.04061284
175	0xbd359b83	-0.04433776
176	0x3e543ab6	0.20725521
177	0x3d6182ec	0.055056497
178	0x3d96e3cb	0.07367667
179	0x3b0c7e5f	0.0021437628
180	0x3dd49596	0.10380094
181	0xbce0afed	-0.027427638
182	0xbe210d38	-0.15727699
183	0x3e27935b	0.16364805
184	0x3ea47215	0.32118288
185	0xbe063f24	-0.13110024
186	0x3de3e177	0.111269884
187	0x3e732013	0.23742704
188	0x3d5d7985	0.05407097
189	0xbe9dd7d3	-0.30828723
190	0x3e2cf91d	0.16891904
191	0x3e4b1b63	0.19834666
192	0xbdf9dff0	-0.12200916
193	0x3af1e6b0	0.0018455591
194	0xbdf84dfd	-0.1212425
195	0xbd4ac578	-0.049504727
196	0x3e6c4fa9	0.23077263
197	0x3e0e8ae4	0.1392017
198	0x3e237c56	0.15965399
199	0xbe85792f	-0.26069018
200	0x3db44378	0.08801931
201	0x3e383b8d	0.17991467
202	0x3e3ecf4b	0.18633763
203	0xbdc71b9f	-0.09722065
204	0xbe347a68	-0.1762482
205	0xbe09306b	-0.13397376
206	0xbe5589df	-0.20853375
207	0xbb19cc3c	-0.002346768
208	0x3e0c9745	0.1372958
209	0xbe3db2fa	-0.18525305
210	0xbe4a64ca	-0.1976501
211	0xbda39584	-0.07987502
212	0x3e507b4e	0.20359537
213	0xbddc412d	-0.10754619
214	0x3c805b16	0.015668433
215	0xbd8844dc	-0.06653759
216	0xbe4015e7	-0.18758355
217	0x3e9ed878	0.31024528
218	0xbc88642a	-0.016649324
219	0xbdd14594	-0.10218349
220	0xbea2aec6	-0.31773967
221	0x3da2f9ba	0.07957788
222	0x3df8967f	0.1213808
223	0x3e7cd3fb	0.24690239
224	0xbe6cb0be	-0.23114297
225	0x3e03d24c	0.1287319
226	0x3d7aac71	0.06119961
227	0xbea03f10	-0.31298113
228	0xbe91c2c9	-0.28468922
229	0x3e9a3453	0.30118045
230	0xbe1d5ab5	-0.15366633
231	0x3e1cdefc	0.15319437
232	0xbe93b160	-0.28846264
233	0xbe45b3fb	-0.19306938
234	0x3e08c5f3	0.13356762
235	0x3d278440	0.040897608
236	0x3e53bc20	0.20677233
237	0x3e3e3c9f	0.18577813
238	0xbcb1557e	-0.021647211
239	0xbc44642e	-0.011986775
240	0xbd11182c	-0.035423443
241	0xbe337c45	-0.17527874
242	0x3d2c3132	0.042039104
243	0xbea44498	-0.32083583
244	0xbe16a738	-0.14712226
245	0x3ecb0b0a	0.3965686
246	0x3e0b0ea3	0.13579802
247	0xbe1b55ea	-0.15169492
248	0x3d5b6154	0.053559616
249	0x3e3b5196	0.18292841
250	0xbd6d2202	-0.05789376
251	0x3c8056e5	0.015666435
252	0x3da8edae	0.08248459
253	0x3e1d7c08	0.15379345
254	0x3dfc3f74	0.1231679
255	0x3cceaf14	0.025229968

linear2.weight f4 [3, 256]
0	0x3e1c73b2	0.1527851
1	0xbd6df5c3	-0.058095705
2	0x3c4c849a	0.012482787
3	0x3b9d5bba	0.0048021944
4	0xbe00c42e	-0.12574837
5	0xbd3bf2c5	-0.04588582
6	0xbdf472fb	-0.11935993
7	0xbe1a11d9	-0.15045871
8	0xbcc79999	-0.024365233
9	0xbdb607bd	-0.08888195
10	0xbe423279	-0.18964566
11	0x3de8a157	0.11358898
12	0xbc8d4f72	-0.017249797
13	0x3e1279e2	0.14304307
14	0xbdbab7bb	-0.09117075
15	0xbd97ff6c	-0.07421765
16	0xbd89349b	-0.06699487
17	0xbde875e4	-0.11350611
18	0x3d7f2e02	0.062299736
19	0xbe022720	-0.12710238
20	0x3de097a2	0.10966422
21	0xbdb0ea1e	-0.08638404
22	0xbe527726	-0.20553264
23	0x3dad569c	0.08463785
24	0xbe6d844a	-0.23194996
25	0x3d9ff00a	0.07809456
26	0xbe23dd54	-0.16002399
27	0xbe149f04	-0.14513785
28	0x3cc749a5	0.024327109
29	0x3e3f37c3	0.18673615
30	0xbb716090	-0.0036831237
31	0xbc496feb	-0.01229475
32	0xbe3ec9b9	-0.18631639
33	0xbe002eac	-0.12517804
34	0x3e265d94	0.16246635
35	0x3db0f038	0.08639568
36	0xbde56d92	-0.112025395
37	0x3d026cc6	0.031842016
38	0x3e1aa613	0.15102415
39	0xbe55136c	-0.2080819
40	0x3d6b392b	0.057427566
41	0x3c40636b	0.011742453
42	0xbdd48453	-0.10376801
43	0x3da6fd8c	0.08153829
44	0xbdc12826	-0.09431486
45	0xbe38f0a7	-0.18060552
46	0xbe0e9e1a	-0.13927498
47	0xbd54b60c	-0.051931426
48	0x3d7a211b	0.061066728
49	0xbd6dde74	-0.058073476
50	0x3d9d77fc	0.07688901
51	0xbe06ac52	-0.13151672
52	0xbe5ebb70	-0.21751189
53	0xbcf7dad0	-0.030255705
54	0x3e3dfacb	0.18552701
55	0x3d390bef	0.045177396
56	0x3e0479e9	0.1293713
57	0xbdd8900c	-0.1057435
58	0xbe00907b	-0.12555115
59	0xbdc0972e	-0.09403835
60	0xbdd14ede	-0.10220121
61	0x3cb2f03e	0.021843072
62	0x3e090399	0.13380279
63	0x3da74a2b	0.08168443
64	0xbd56b2ae	-0.052416496
65	0x3db255fd	0.08707807
66	0xbdf1c6d4	-0.118055016
67	0x3ce3a68c	0.027789377
68	0xbde51bd1	-0.11186946
69	0xbe810cc4	-0.25205052
70	0xbe0348e1	-0.1282077
71	0x3e0f9860	0.1402297
72	0xbdc5cad6	-0.096578285
73	0xbdec52aa	-0.115392044
74	0xbe01e8a6	-0.12686405
75	0xbd9809a5	-0.074237145
76	0x3d91c661	0.07117916
77	0xbdb85f1f	-0.09002518
78	0xbd3b984d	-0.045799542
79	0x3dcb2c7c	0.09920594
80	0x3d498002	0.049194343
81	0x3c86d818	0.016460463
82	0xbbd80906	-0.0065928726
83	0xbdd3745b	-0.103249274
84	0xbdb86f40	-0.09005594
85	0xbd98023a	-0.074223
86	0x3e00a9bc	0.12564749
87	0x3e35b3d7	0.17744385
88	0x3e34120c	0.1758501
89	0x3c62766a	0.013822177
90	0x3db7f7cd	0.08982811
91	0x3d689d69	0.056790743
92	0xbe78e97a	-0.24307814
93	0xbdc00b38	-0.0937714
94	0xbdf2077b	-0.11817833
95	0x3d302772	0.043006368
96	0x3c587f29	0.013213911
97	0x3dec0dff	0.11526107
98	0xbe8ca24d	-0.27467576
99	0xbd7b3f57	-0.061339702
100	0xbe1f2298	-0.1554054
101	0xbd1e1463	-0.03859366
102	0x3d4f2c58	0.0505794
103	0xbcc395e0	-0.023875177
104	0x3e061ac5	0.1309615
105	0xbdff3a44	-0.12462285
106	0x3d57fb31	0.05272979
107	0xbdf53ac3	-0.119740985
108	0x3cfdb408	0.030969635
109	0x3c5ae9d2	0.013361411
110	0xbd3ab7d7	-0.04558548
111	0xbb48fc88	-0.0030668098
112	0xbdcd44bc	-0.10022876
113	0x3e3d40dc	0.18481773
114	0x3a784ce2	0.00094719057
115	0x3d8bf368	0.068335354
116	0xbdb3bb2a	-0.08775933
117	0xbddaeaa6	-0.10689287
118	0xbe2925e0	-0.16518354
119	0xbdc3fac6	-0.095693156
120	0xbd851ca6	-0.06499605
121	0x3d839986	0.06425767
122	0xbde444fd	-0.11145971
123	0xbe760311	-0.24024607
124	0x3d3db94e	0.0463193
125	0xbd903cc8	-0.07042843
126	0xbe36d94e	-0.17856333
127	0xbae1769d	-0.0017201487
128	0x3e105e2e	0.14098427
129	0xbe179924	-0.14804512
130	0xbd33eaea	-0.043925203
131	0xbd4238dd	-0.04741751
132	0x3d2cf3a2	0.042224534
133	0xbe80c0aa	-0.2514699
134	0xbe42baf1	-0.19016625
135	0xbe10db03	-0.14146046
136	0xbde02890	-0.10945237
137	0x3e0ddf63	0.13854747
138	0xbe2884ab	-0.16456859
139	0xbd8c6720	-0.06855607
140	0x3c948578	0.01813005
141	0xbc007c30	-0.007842109
142	0xbdee54e5	-0.11637286
143	0x3bf066b8	0.007336464
144	0xbdb66f1e	-0.08907913
145	0xbcd27b1d	-0.02569347
146	0x3d88bc43	0.06676533
147	0x3d2d0e43	0.04224993
148	0xbe7cc6e2	-0.24685243
149	0x3d996f02	0.07491876
150	0xbdec33be	-0.115333065
151	0x3c591b21	0.013251097
152	0xbdb95ad1	-0.09050525
153	0xbcfae478	-0.03062652
154	0xbc0936c8	-0.008374877
155	0x3bcd87b6	0.0062722815
156	0x3d3f015c	0.046632156
157	0xbe6bc057	-0.2302259
158	0xbe0b5b92	-0.1360915
159	0xbdee6dc0	-0.11642027
160	0xbe00f163	-0.12592082
161	0x3d20b03c	0.03923057
162	0xbde4c3ec	-0.11170182
163	0xbddeb41c	-0.10874197
164	0x3e33b9a1	0.1755128
165	0xbe0c82ba	-0.13721743
166	0xbe4cdb15	-0.20005448
167	0x3cda6235	0.026658157
168	0xbe4ef6a0	-0.20211267
169	0x3b2f34dc	0.0026734388
170	0x3d5d9969	0.05410138
171	0x3dab9480	0.083779335
172	0xbd10f324	-0.035388127
173	0xbc59a0dd	-0.013282982
174	0xbdc991bd	-0.098422505
175	0xbe31be68	-0.1735779
176	0x3c9eb791	0.01937464
177	0x3d932fd8	0.0718686
178	0xbe1533ea	-0.14570585
179	0xbe0419b9	-0.12900437
180	0xbd5c2f4a	-0.053756036
181	0x3df4ed2c	0.119592994
182	0x3e0741c3	0.1320868
183	0x3d7ca701	0.061682705
184	0xbd9516ef	-0.07279765
185	0xbe3913a2	-0.18073896
186	0x3cfdfb3b	0.031003585
187	0xbe03c57b	-0.12868302
188	0xbdc5d99a	-0.09660645
189	0x3d486b04	0.048930183
190	0xbd3046dd	-0.04303633
191	0x3cc7f7fa	0.024410237
192	0x3bf20461	0.007385776
193	0xbe21d54b	-0.15804021
194	0x3ca2fa90	0.019894868
195	0xbe201db8	-0.15636337
196	0xbdcdb6c7	-0.10044628
197	0xbe1cc604	-0.15309912
198	0xba8232ff	-0.0009933411
199	0x3df0ea39	0.117634244
200	0x3bebf5ee	0.007200948
201	0xbd39976f	-0.045310434
202	0xbdb845d4	-0.08997694
203	0xbd30755f	-0.043080684
204	0x3d9cecad	0.0766233
205	0x3dbec775	0.09315387
206	0xbe29ef94	-0.16595298
207	0xbdda6382	-0.10663511
208	0x3e354002	0.17700198
209	0xbcd23594	-0.025660314
210	0xbe845edd	-0.25853625
211	0xbe445a3b	-0.19175045
212	0x3db9e0e5	0.09076098
213	0x3ccb984c	0.024852894
214	0x3b38f73d	0.0028223537
215	0xbe20e677	-0.15712915
216	0xbdb9407d	-0.09045503
217	0xbe37d672	-0.17952898
218	0x3cd64c18	0.026159331
219	0x3c1a7046	0.009426182
220	0x3c4129ab	0.01178972
221	0xbdd25c72	-0.10271539
222	0xbe0868e6	-0.13321266
223	0xbd72f75d	-0.059317935
224	0x3d4f9ae8	0.05068484
225	0x3c892299	0.01674013
226	0x3d7236de	0.059134357
227	0x3d39d07d	0.045364846
228	0xbddf1bf3	-0.10894003
229	0xbd27f611	-0.04100615
230	0xbe0cd3ec	-0.13752717
231	0xbe139352	-0.14411667
232	0x3d96dac3	0.07365944
233	0x3e247e82	0.16063884
234	0xbdcbaf6c	-0.099455684
235	0x3db7269a	0.089429095
236	0xbd969081	-0.07351781
237	0xbd013e8c	-0.03155379
238	0xbd43be7d	-0.047789086
239	0xbdcafb82	-0.099112526
240	0xbc5998b0	-0.013281032
241	0xbd96c2f1	-0.07361401
242	0x3d3e4d67	0.046460535
243	0xbc82cea2	-0.01596767
244	0xbe065f61	-0.13122322
245	0xbdd9be40	-0.106319904
246	0xbd9636a7	-0.07334643
247	0xbe3d828d	-0.18506832
248	0xbcee364a	-0.029078621
249	0x3e065237	0.131173
250	0xbe61d7a0	-0.2205491
251	0x3deac794	0.11463848
252	0xbddcfcda	-0.10790415
253	0x3d727feb	0.059204023
254	0x3b0330d6	0.0020018122
255	0xbd357a0c	-0.044305846

linear2.bias f4 [3]
0	0x3c2e8878	0.010652654
1	0xbdfd3d31	-0.12365187
2	0xbe0d869a	-0.13820878
